[net]
batch=1
subdivisions=1
height=64
width=64
channels=3
learning_rate=0.001
momentum=0.9
decay=0.0005
max_batches=46000

[convolutional]
filters=64
size=3
stride=1
pad=1
activation=relu

[convolutional]
filters=64
size=3
stride=1
pad=1
activation=relu

[maxpool]
size=2
stride=2

[convolutional]
filters=128
size=3
stride=1
pad=1
activation=relu

[convolutional]
filters=128
size=3
stride=1
pad=1
activation=relu

[maxpool]
size=2
stride=2

[convolutional]
filters=256
size=3
stride=1
pad=1
activation=relu

[convolutional]
filters=256
size=3
stride=1
pad=1
activation=relu

[convolutional]
filters=256
size=3
stride=1
pad=1
activation=relu

[maxpool]
size=2
stride=2

[convolutional]
filters=512
size=3
stride=1
pad=1
activation=relu

[convolutional]
filters=512
size=3
stride=1
pad=1
activation=relu

[convolutional]
filters=512
size=3
stride=1
pad=1
activation=relu

[maxpool]
size=2
stride=2

[convolutional]
filters=512
size=3
stride=1
pad=1
activation=relu

[convolutional]
filters=512
size=3
stride=1
pad=1
activation=relu

[convolutional]
filters=512
size=3
stride=1
pad=1
activation=relu

[maxpool]
size=2
stride=2

[connected]
output=4096
activation=relu

[dropout]
probability=.5

[connected]
output=4096
activation=relu

[dropout]
probability=.5

[connected]
output=2
activation=linear

[softmax]
groups=1

[cost]
type=sse

